…
u'),&lt;br dir="ltr"&gt;    &lt;br dir="ltr"&gt;    # Output layer&lt;br dir="ltr"&gt;    tf.keras.layers.Dense(26, activation='softmax')&lt;br dir="ltr"&gt;])&lt;/span&gt;&lt;/PRE&gt;&lt;p data-selectable-paragraph=""&gt;and the model summary:&lt;/p&gt;&lt;PRE&gt;&lt;span data-selectable-paragraph="" dir="ltr"&gt;_________________________________________________________________&lt;br dir="ltr"&gt;Layer (type)                 Output Shape              Param #   &lt;br dir="ltr"&gt;=================================================================&lt;br dir="ltr"&gt;conv2d_4 (Conv2D)            (None, 148, 148, 64)      1792      &lt;br dir="ltr"&gt;_________________________________________________________________&lt;br dir="ltr"&gt;max_pooling2d_4 (MaxPooling2 (None, 74, 74, 64)        0         &lt;br dir="ltr"&gt;_________________________________________________________________&lt;br dir="ltr"&gt;conv2d_5 (Conv2D)            (None, 72, 72, 64)        36928     &lt;br dir="ltr"&gt;_________________________________________________________________&lt;br dir="ltr"&gt;max_pooling2d_5 (MaxPooling2 (None, 36, 36, 64)        0         &lt;br dir="ltr"&gt;_________________________________________________________________&lt;br dir="ltr"&gt;conv2d_6 (Conv2D)            (None, 34, 34, 128)       73856     &lt;br dir="ltr"&gt;_________________________________________________________________&lt;br dir="ltr"&gt;max_pooling2d_6 (MaxPooling2 (None, 17, 17, 128)       0         &lt;br dir="ltr"&gt;_________________________________________________________________&lt;br dir="ltr"&gt;conv2d_7 (Conv2D)            (None, 15, 15, 128)       147584    &lt;br dir="ltr"&gt;_________________________________________________________________&lt;br dir="ltr"&gt;max_pooling2d_7 (MaxPooling2 (None, 7, 7, 128)         0         &lt;br dir="ltr"&gt;_________________________________________________________________&lt;br dir="ltr"&gt;flatten_1 (Flatten)          (None, 6272)              0         &lt;br dir="ltr"&gt;_________________________________________________________________&lt;br dir="ltr"&gt;dropout_1 (Dropout)          (None, 6272)              0         &lt;br dir="ltr"&gt;_________________________________________________________________&lt;br dir="ltr"&gt;dense_2 (Dense)              (None, 512)               3211776   &lt;br dir="ltr"&gt;_________________________________________________________________&lt;br dir="ltr"&gt;dense_3 (Dense)              (None, 26)                13338     &lt;br dir="ltr"&gt;=================================================================&lt;br dir="ltr"&gt;Total params: 3,485,274&lt;br dir="ltr"&gt;Trainable params: 3,485,274&lt;br dir="ltr"&gt;Non-trainable params: 0&lt;/span&gt;&lt;/PRE&gt;&lt;p data-selectable-paragraph=""&gt;The training result is shown in Fig. 9. In about 13 epochs it converges to 80% validation accuracy with 90% traini
…
